Chatbot-main/data.pth (torch, 4287 bytes, 6 tensors)

l1.weight f4 [8, 40]
00000000: f9e4 f23b 5350 853d eec6 42be 775e e53e
00000010: 7757 253f c211 abbd 7b37 1dbf 3925 21be
00000020: 57f0 e53e bc41 593e 2532 17be a2ca 78be
00000030: 53c1 14be 3cf9 70be 686b 493f a283 cd3e
00000040: 7305 88bd 3199 16be a75b 383f e169 5bbe
00000050: 1592 2a3f 8f63 3b3f e8be 0b3f 8cbf 03be
00000060: 19ee db3e 98e7 d73e 68fc 0bbd 766f efbd
00000070: 5189 50be 7d47 f4bc a9ea e6bd c2ff 3bbe
00000080: 5e78 073f 534e a9be 04ba 7dbe 2888 94be
00000090: e304 93be e9d0 083f 4155 c3bd 2f7d 853e
000000a0: d1dd 173f ea46 f83e cc55 e5be c9e3 0d3f
000000b0: a37f 0b3f 7080 813e b699 4a3e ded5 103e
000000c0: 7694 cbbe 0327 ed3e d214 833e 776a 813d
000000d0: 6261 e3be f611 033e 919f 193f f4bd d2be
000000e0: 522d 153e da22 f8be 3fa0 643f 8c26 233f
000000f0: fd69 863f 9763 7f3f 097e 073f 0409 63be
00000100: dd2a f43e 32d4 0dbf f7e1 8c3e 06cd 72be
00000110: 9377 423e 7623 123d f3e2 9dbe 72fb dcbd
00000120: 2130 bebe 2804 50be db97 373f 0190 1c3f
00000130: 5d9c ddbe 4405 033f ff82 d0be 715d 363d
00000140: 956a 77be 828d df3d b095 f13e f8e1 853e
00000150: b1e0 953e dd87 0b3e 1fa1 223f ca44 8c3e
00000160: b729 dbbe b553 e83e 3d13 7d3e 917e 973e
00000170: 799a 123e bcea c43e a8a5 bebc 8a18 09bf
00000180: 099c 2c3e bd09 ea3d 4823 e53e 92ad 0cbe
00000190: 303a d63e c1da 013f a724 803e d253 b43e
000001a0: bfcf 833e 8525 d7be c6b1 ad3d e6b0 9e3e
000001b0: 346c a73e fc0f f23e ecc1 063f 8121 ee3e
000001c0: 5fc1 0fbe 04d1 a03e 3d4b 0fbf 30d8 38be
000001d0: 9866 913e 5810 483e 0ae8 813e 44db a9bb
000001e0: 9600 ce3e 1c7f c43e c6ac 95be 782b cdbc
000001f0: 85d6 febc 0d2d 9f3e 8ae8 3a3f f3b1 d43e
00000200: 2b51 08bf c43b 3fbe ef1b a93e f917 3e3e
00000210: 78b7 5c3c 1e27 ad3e 8417 3c3e 1aa5 eebe
00000220: e1f8 e43e f077 54be 950d 47be 0351 983e
00000230: 5ddb 75be 935b 59be 255b fdbd 551f 4c3e
00000240: 4307 b13d 1432 d5be 7517 5a3e 6429 bebb
00000250: 8217 ab3e a079 df3e 8652 3abe 8eee aabe
00000260: 627c 12bf 9572 69bd 220c 7e3f 9594 e73e
00000270: 1a48 bbbd e5bd bb3d e83e bcbd 8715 c83e
00000280: edce bfbe 3f98 4d3e 4df9 bb3e facc 1d3f
00000290: 96f9 2a3f 2d04 c63e 88a4 383f 93ce e83e
000002a0: b785 1fbf 6c25 1a3f 507d a83e 0936 d03e
000002b0: 2378 363e 23c0 9d3e b558 b43e 1612 17bf
000002c0: 4105 e53e 2f60 353e bba8 2e3f 2a75 6abe
000002d0: 9037 323f 1ecb 2a3f 29d0 293f 11ba 8f3e
000002e0: b921 233f 63ea 99be 3000 59bd b1d7 313e
000002f0: a01b 283e 578c 023f 878e 853e 166e a33e
00000300: d382 debe 705d 113e 6c99 3ebf 1d15 10be
00000310: a860 203e 90af e83e adf8 bcbd f3ad bfbb
00000320: 9e18 143f 91d2 8b3e 0c2a 183f d50a 86be
00000330: 968a fabe 241f 133e 1a30 6f3f c928 c53e
00000340: fabf dbbe 21e3 8bbd 4e87 ee3e 15f0 ab3e
00000350: 0ca0 b23e 197d 973e 1e1b 21bf cae8 cabe
00000360: ed09 ba3e f234 263e 30b0 32bf c9df 3a3f
00000370: e590 32bf 97ab 32bf fb71 14bf ea69 ea3e
00000380: 80f2 01be 2ed2 cebe f58c 023f 822f b13e
00000390: bf8b de3e daf1 c23e cd29 073f a443 bb3e
000003a0: ebf0 f2be 22b1 153f 715a 7f3f ee8e f23e
000003b0: fa65 fa3e d71d 9cbe 3ad8 0d3f 8c71 cf3e
000003c0: 1246 7dbd 285a 9c3e 4b4b 1b3f fe81 76be
000003d0: a694 c1bd 5f45 01bd ee4e 4d3f 026f bc3d
000003e0: 35de f43d 2b5d a13e 82df 583d bbb3 093e
000003f0: db03 e53e 7524 ae3e 21d8 bcbe 18ff ee3d
0.0074125496 0.06509461 -0.19021198 0.44798633 0.64586586 -0.083529964 -0.6141278 -0.15736856
0.44909927 0.21216482 -0.14765222 -0.24296048 -0.14526872 -0.23532575 0.78679514 0.4013949
-0.06641664 -0.14706875 0.7201485 -0.21427108 0.66629153 0.7319879 0.54588175 -0.12866038
0.42955092 0.4216888 -0.03417626 -0.11691181 -0.20364882 -0.029819245 -0.112752266 -0.18359283
0.5291804 -0.3306757 -0.2477799 -0.2901013 -0.28714666 0.5344377 -0.09537745 0.2607207
0.5932284 0.48491603 -0.4479202 0.554257 0.54491633 0.25293303 0.19785199 0.14144084
-0.39761704 0.46318826 0.25601822 0.06319135 -0.44410235 0.1279982 0.60009104 -0.41160548
0.1456807 -0.4846409 0.89307016 0.6373069 1.0501095 0.9976134 0.5292669 -0.22171408
0.47688952 -0.5540191 0.27516147 -0.23711023 0.18990926 0.03567835 -0.3083721 -0.10790147
-0.37146094 -0.20314085 0.7171609 0.6115723 -0.43283358 0.5117991 -0.40724942 0.044522706
-0.24161752 0.10915662 0.47184515 0.26148963 0.29272988 0.13626046 0.635271 0.27396232
-0.42805263 0.45376363 0.2471437 0.2958875 0.14316739 0.38460338 -0.02327235 -0.5355307
0.16856398 0.11427639 0.4475348 -0.13738087 0.4184127 0.50724417 0.25027964 0.352202
0.25744435 -0.42020813 0.08481173 0.30994338 0.3269974 0.4727782 0.5263965 0.46509936
-0.14038609 0.31409466 -0.5597418 -0.18051219 0.28398585 0.19537485 0.25372344 -0.005183609
0.40234822 0.38378227 -0.29233378 -0.025045142 -0.03110815 0.3108906 0.73011076 0.41542014
-0.5324885 -0.18675143 0.33029124 0.18563832 0.013471477 0.33818907 0.18368345 -0.46610337
0.4472113 -0.20748878 -0.19438775 0.29749307 -0.24009462 -0.21226339 -0.123709 0.19933827
0.08643963 -0.4163977 0.2129801 -0.005803274 0.33416373 0.4364748 -0.18195543 -0.33385128
-0.57221043 -0.05699404 0.99237263 0.45230547 -0.09144612 0.09167079 -0.09191686 0.39078924
-0.3746256 0.20077609 0.3671364 0.61640894 0.6678709 0.3867506 0.72126055 0.45470104
-0.6231341 0.6021335 0.32908106 0.40666226 0.17819266 0.3081065 0.35223928 -0.5901197
0.4473057 0.17712472 0.6822621 -0.22896257 0.6961603 0.6671618 0.6633325 0.28071645
0.6372333 -0.30061635 -0.052978694 0.17367436 0.16416788 0.5099539 0.26085302 0.31919926
-0.43459186 0.141958 -0.74452853 -0.14070554 0.15661871 0.45446444 -0.09227119 -0.005849594
0.5785006 0.27309087 0.5943916 -0.2618014 -0.48933858 0.14367348 0.9343277 0.3850768
-0.42919904 -0.06830431 0.46587604 0.33581606 0.3488773 0.2958763 -0.62932 -0.3963073
0.36335698 0.16231135 -0.6980009 0.7299772 -0.6975234 -0.69793075 -0.5798642 0.4578393
-0.12690163 -0.4039473 0.50996333 0.34606558 0.43465993 0.38075143 0.5279816 0.36575043
-0.4744943 0.5847341 0.9974738 0.47374672 0.48905927 -0.30491516 0.5540806 0.40516317
-0.061834402 0.30537534 0.6066176 -0.24073026 -0.094521806 -0.031560298 0.8019856 0.092008606
0.11956445 0.31516394 0.05294753 0.13447468 0.44729504 0.3401219 -0.36883643 0.11669749

l1.bias f4 [8]
00000000: 341f 1d3f 57fc 623f dff6 0e3f 6bae 1b3f
00000010: f438 3e3f 4db0 323f 71aa d53e 1324 b53e
0.6137574 0.8866629 0.55845445 0.60813016 0.74305654 0.69800264 0.417316 0.35379085

l2.weight f4 [8, 8]
00000000: 0656 853d 7e68 a63f abaf 4b3f e9fc 573f
00000010: 1aff 953f 899a 28be 6433 f4be 68d4 94bf
00000020: a8c4 8abf 8bec 31bf 8015 743f 65d1 953e
00000030: 8fcd 653f 3634 0e3f 2e80 643f 4060 f43e
00000040: 01dc e9bc 7f3d 40bd cc7d d23c e2bd 313e
00000050: f196 1f3e f089 99be cf33 e3bd 4337 90be
00000060: 649d a63d e039 1abc 4015 1dbe a6b8 8cbe
00000070: 583a bfbd 7af3 7a3e 38ed 7ebd 24f7 8b3d
00000080: a623 17bf 48d8 323f b507 93be e7ef ac3f
00000090: e9d5 14bf 8d0e b33f cf55 39bf e2e5 6bbe
000000a0: ecc9 9bbe ac49 dfbd 778d 033d d23c e03d
000000b0: 0140 47be 5521 c9bd de67 923e 7dd8 82be
000000c0: 88b9 5b3c ac67 7bba 1fc6 5ebe 349a acbe
000000d0: b62b 9f3e 601a 14bc 8245 313d 19c2 84be
000000e0: c6ae 2fbf 5a0d 51bf 5f8e 873f c3d7 5a3e
000000f0: 809a 553f 2a38 5d3f 5763 823f 704f a93e
0.06510548 1.3000638 0.79564923 0.84370285 1.1718476 -0.164652 -0.47695458 -1.1627321
-1.0841265 -0.6950156 0.95345306 0.29261318 0.8976678 0.5554842 0.89258087 0.47729683
-0.028547289 -0.046933647 0.02569475 0.17357591 0.15584923 -0.2998805 -0.11093866 -0.2816716
0.08135489 -0.009413213 -0.15340137 -0.27484626 -0.093373 0.24506941 -0.06223795 0.06834248
-0.5903877 0.6986127 -0.28716817 1.3510712 -0.581389 1.3988816 -0.7239656 -0.23036912
-0.30427492 -0.10902724 0.032117333 0.109491006 -0.1945801 -0.09820811 0.2859487 -0.25555792
0.013410933 -0.00095903384 -0.21755265 -0.33711398 0.31088036 -0.009039491 0.04327918 -0.25929335
-0.6862606 -0.81661 1.0590323 0.21371369 0.83438873 0.86413825 1.0186566 0.33068419

l2.bias f4 [8]
00000000: 6f49 023f 5453 983d 0166 bbbe bcd8 40be
00000010: 3640 9d3e 631e c9bc 065d bcbe 4fee 87be
0.508933 0.074377686 -0.3660126 -0.18832678 0.30713052 -0.024550622 -0.3678972 -0.26549003

l3.weight f4 [5, 8]
00000000: d169 843c 216b a03e 8992 2cbe 5c07 7abe
00000010: b90d a43d 6717 2ebc 08e3 363e 691a b33e
00000020: 0bad 60bf 3cfc 19bf 26f3 8cbe f8f9 573d
00000030: 6bda 4abf 7ff0 1dbe 5a39 3f3e 3e0e cbbe
00000040: 05dd 813f 9bc9 63bf cf4f e6bd a8e3 f1bd
00000050: fbbd 43bf 4372 92be 0b36 eabd c3f9 30bf
00000060: 0f90 98bf 8350 1e3f 81fb 3dbd 6a04 3a3e
00000070: 1554 59bf d9dc 5cbe 0b5b 8dbe 8ee2 393f
00000080: 091f f83c 5d51 90bf b655 f1bc a092 68bd
00000090: 14ab 843f 4768 953e 4ba5 493d 14ea 06bf
0.016163738 0.31331733 -0.16852774 -0.2441687 0.0801043 -0.010625697 0.17860043 0.34981087
-0.8776404 -0.60150504 -0.27529258 0.052728623 -0.7923953 -0.15423773 0.18674222 -0.39659303
1.0145575 -0.889795 -0.11245691 -0.11811 -0.7646176 -0.286028 -0.11436089 -0.69131106
-1.1918963 0.618416 -0.04638243 0.18165746 -0.84893924 -0.21568622 -0.27608523 0.7261132
0.030288236 -1.127483 -0.029459815 -0.056780457 1.0364709 0.2918112 0.0492299 -0.52700925

l3.bias f4 [5]
00000000: c552 90bf 515c e43f e27c c4bd d7b8 67bf
00000010: eb75 49bf
-1.1275259 1.7840673 -0.09594132 -0.9051642 -0.78695554
